…
    model.compile(optimizer = 'adam',
                  loss = 'categorical_crossentropy',
                  metrics = ['accuracy'])

    Downloading data from https://storage.googleapis.com/tensorflow/keras-applications/densenet/densenet121_weights_tf_dim_ordering_tf_kernels_notop.h5
    29084464/29084464 [==============================] - 0s 0us/step
    Model: "sequential"
    _________________________________________________________________
     Layer (type)                Output Shape              Param #   
    =================================================================
     densenet121 (Functional)    (None, 2, 2, 1024)        7037504   
                                                                     
     global_average_pooling2d (  (None, 1024)              0         
     GlobalAveragePooling2D)                                         
                                                                     
     dense (Dense)               (None, 256)               262400    
                                                                     
     dropout (Dropout)           (None, 256)               0         
                                                                     
     dense_1 (Dense)             (None, 512)               131584    
                                                                     
     dropout_1 (Dropout)         (None, 512)               0         
                                                                     
     dense_2 (Dense)             (None, 1024)              525312    
                                                                     
     dense_3 (Dense)             (None, 14)                14350     
                                                                     
    =================================================================
    Total params: 7971150 (30.41 MB)
    Trainable params: 933646 (3.56 MB)
    Non-trainable params: 7037504 (26.85 MB)
    _________________________________________________________________

    history = model.fit(x = train_set,validation_data = val_set,epochs = EPOCHS)
…
